…
6IKmk","outputId":"ea293c51-2cb6-43e5-8bd7-6466ac73ee54"},"outputs":[{"name":"stderr","output_type":"stream","text":["WARNING:tensorflow:Layer lstm_2 will not use cuDNN kernels since it doesn't meet the criteria. It will use a generic GPU kernel as fallback when running on GPU.\n"]},{"name":"stdout","output_type":"stream","text":["Model: \"sequential_8\"\n","_________________________________________________________________\n"," Layer (type)                Output Shape              Param #   \n","=================================================================\n"," conv1d_21 (Conv1D)          (None, 6042, 256)         1024      \n","                                                                 \n"," max_pooling1d_8 (MaxPooling  (None, 3021, 256)        0         \n"," 1D)                                                             \n","                                                                 \n"," conv1d_22 (Conv1D)          (None, 3021, 256)         196864    \n","                                                                 \n"," max_pooling1d_9 (MaxPooling  (None, 1511, 256)        0         \n"," 1D)                                                             \n","                                                                 \n"," dropout (Dropout)           (None, 1511, 256)         0         \n","                                                                 \n"," lstm_2 (LSTM)               (None, 1511, 64)          82176     \n","                                                                 \n"," flatten_7 (Flatten)         (None, 96704)             0         \n","                                                                 \n"," dense_14 (Dense)            (None, 250)               24176250  \n","                                                                 \n"," dense_15 (Dense)            (None, 11)                2761      \n","                                                                 \n","=================================================================\n","Total params: 24,459,075\n","Trainable params: 24,459,075\n","Non-trainable params: 0\n","_________________________________________________________________\n"]}],"source":["cnn_lstm = keras.Sequential()\n","cnn_lstm.add(keras.layers.Input((6042,1)))
…
ab":{"base_uri":"https://localhost:8080/"},"executionInfo":{"elapsed":1865,"status":"ok","timestamp":1684150400784,"user":{"displayName":"Павел Лачугин","userId":"02174723409115910391"},"user_tz":-240},"id":"H7sfOPNcASR8","outputId":"ab73f9fa-fe79-464d-94cc-ce1460d3748e"},"outputs":[{"output_type":"stream","name":"stdout","text":["Model: \"sequential_5\"\n","_________________________________________________________________\n"," Layer (type)                Output Shape              Param #   \n","=================================================================\n"," conv1d_15 (Conv1D)          (None, 6042, 64)          192       \n","                                                                 \n"," conv1d_16 (Conv1D)          (None, 6042, 64)          8256      \n","                                                                 \n"," conv1d_17 (Conv1D)          (None, 6042, 64)          8256      \n","                                                                 \n"," max_pooling1d_5 (MaxPooling  (None, 3021, 64)         0         \n"," 1D)                                                             \n","                                                                 \n"," flatten_5 (Flatten)         (None, 193344)            0         \n","                                                                 \n"," dense_10 (Dense)            (None, 256)               49496320  \n","                                                                 \n"," dense_11 (Dense)            (None, 11)                2827      \n","                                                                 \n","=================================================================\n","Total params: 49,515,851\n","Trainable params: 49,515,851\n","Non-trainable params: 0\n","_________________________________________________________________\n"]}],"source":["cnn = keras.Sequential()\n","cnn.add(keras.layers.Input((6042,1)))\n","#cnn.
…
